…
:::MLLOG {"namespace": "", "time_ms": 1689105118371, "event_type": "POINT_IN_TIME", "key": "scheduler_decay_rate", "value": 0.2, "metadata": {"file": "/project/rcde/nnisbet/mlperf_hpc/deepcam/src/deepCam/utils/optimizer_helpers.py", "lineno": 97}}
:::MLLOG {"namespace": "", "time_ms": 1689105118371, "event_type": "POINT_IN_TIME", "key": "scheduler_lr_warmup_steps", "value": 100, "metadata": {"file": "/project/rcde/nnisbet/mlperf_hpc/deepcam/src/deepCam/utils/optimizer_helpers.py", "lineno": 97}}
:::MLLOG {"namespace": "", "time_ms": 1689105118371, "event_type": "POINT_IN_TIME", "key": "scheduler_lr_warmup_factor", "value": 1.0, "metadata": {"file": "/project/rcde/nnisbet/mlperf_hpc/deepcam/src/deepCam/utils/optimizer_helpers.py", "lineno": 97}}
DeepLabv3_plus(
  (xception_features): Xception(
    (relu): ReLU(inplace=True)
    (conv1): Conv2d(16, 32, kernel_size=(3, 3), stride=(2, 2), padding=(1, 1), bias=False)
    (bn1): GBN(
      (bn): BatchNorm2d(32, eps=1e-05, momentum=0.1, affine=True, track_running_stats=True)
    )
    (conv2): Conv2d(32, 64, kernel_size=(3, 3), stride=(1, 1), padding=(1, 1), bias=False)
    (bn2): GBN(
      (bn): BatchNorm2d(64, eps=1e-05, momentum=0.1, affine=True, track_running_stats=True)
    )
    (block1): Block(
      (skip): Conv2d(64, 128, kernel_size=(1, 1), stride=(2, 2), bias=False)
      (skipbn): GBN(
        (bn): BatchNorm2d(128, eps=1e-05, momentum=0.1, affine=True, track_running_stats=True)
      )
      (relu): ReLU(inplace=True)
      (rep): Sequential(
        (0): SeparableConv2d_same(
          (conv1): Conv2d(64, 64, kernel_size=(3, 3), stride=(1, 1), padding=(1, 1), groups=64, bias=False)
          (pointwise): Conv2d(64, 128, kernel_size=(1, 1), stride=(1, 1), bias=False)
        )
        (1): GBN(
          (bn): BatchNorm2d(128, eps=1e-05, momentum=0.1, affine=True, track_running_stats=True)
        )
        (2): ReLU(inplace=True)
        (3): SeparableConv2d_same(
          (conv1): Conv2d(128, 128, kernel_size=(3, 3), stride=(1, 1), padding=(1, 1), groups=128, bias=False)
          (pointwise): Conv2d(128, 128, kernel_size=(1, 1), stride=(1, 1), bias=False)
        )
        (4): GBN(
          (bn): BatchNorm2d(128, eps=1e-05, momentum=0.1, affine=True, track_running_stats=True)
        )
        (5): SeparableConv2d_same(
          (conv1): Conv2d(128, 128, kernel_size=(3, 3), stride=(2, 2), padding=(1, 1), groups=128, bias=False)
          (pointwise): Conv2d(128, 128, kernel_size=(1, 1), stride=(1, 1), bias=False)
        )
      )
    )
    (block2): Block(
      (skip): Conv2d(128, 256, kernel_size=(1, 1), stride=(2, 2), bias=False)
      (skipbn): GBN(
        (bn): BatchNorm2d(256, eps=1e-05, momentum=0.1, affine=True, track_running_stats=True)
      )
      (relu): ReLU(inplace=True)
      (rep): Sequential(
        (0): SeparableConv2d_same(
          (conv1): Conv2d(128, 128, kernel_size=(3, 3), stride=(1, 1), padding=(1, 1), groups=128, bias=False)
          (pointwise): Conv2d(128, 256, kernel_size=(1, 1), stride=(1, 1), bias=False)
        )
        (1): GBN(
          (bn): BatchNorm2d(256, eps=1e-05, momentum=0.1, affine=True, track_running_stats=True)
        )
        (2): ReLU(inplace=True)
        (3): SeparableConv2d_same(
          (conv1): Conv2d(256, 256, kernel_size=(3, 3), stride=(1, 1), padding=(1, 1), groups=256, bias=False)
          (pointwise): Conv2d(256, 256, kernel_size=(1, 1), stride=(1, 1), bias=False)
        )
        (4): GBN(
          (bn): BatchNorm2d(256, eps=1e-05, momentum=0.1, affine=True, track_running_stats=True)
        )
        (5): SeparableConv2d_same(
          (conv1): Conv2d(256, 256, kernel_size=(3, 3), stride=(2, 2), padding=(1, 1), groups=256, bias=False)
          (pointwise): Conv2d(256, 256, kernel_size=(1, 1), stride=(1, 1), bias=False)
        )
      )
    )
    (block3): Block(
      (skip): Conv2d(256, 728, kernel_size=(1, 1), stride=(2, 2), bias=False)
      (skipbn): GBN(
        (bn): BatchNorm2d(728, eps=1e-05, momentum=0.1, affine=True, track_running_stats=True)
      )
      (relu): ReLU(inplace=True)
      (rep): Sequential(
        (0): SeparableConv2d_same(
          (conv1): Conv2d(256, 256, kernel_size=(3, 3), stride=(1, 1), padding=(1, 1), groups=256, bias=False)
          (pointwise): Conv2d(256, 728, kernel_size=(1, 1), stride=(1, 1), bias=False)
        )
        (1): GBN(
          (bn): BatchNorm2d(728, eps=1e-05, momentum=0.1, affine=True, track_running_stats=True)
        )
        (2): ReLU(inplace=True)
        (3): SeparableConv2d_same(
          (conv1): Conv2d(728, 728, kernel_size=(3, 3), stride=(1, 1), padding=(1, 1), groups=728, bias=False)
          (pointwise): Conv2d(728, 728, kernel_size=(1, 1), stride=(1, 1), bias=False)
        )
        (4): GBN(
          (bn): BatchNorm2d(728, eps=1e-05, momentum=0.1, affine=True, track_running_stats=True)
        )
        (5): SeparableConv2d_same(
          (conv1): Conv2d(728, 728, kernel_size=(3, 3), stride=(2, 2), padding=(1, 1), groups=728, bias=False)
          (pointwise): Conv2d(728, 728, kernel_size=(1, 1), stride=(1, 1), bias=False)
        )
      )
    )
    (block4): Block(
      (relu): ReLU(inplace=True)
      (rep): Sequential(
        (0): SeparableConv2d_same(
          (conv1): Conv2d(728, 728, kernel_size=(3, 3), stride=(1, 1), padding=(1, 1), groups=728, bias=False)
          (pointwise): Conv2d(728, 728, kernel_size=(1, 1), stride=(1, 1), bias=False)
        )
        (1): GBN(
          (bn): BatchNorm2d(728, eps=1e-05, momentum=0.1, affine=True, track_running_stats=True)
        )
        (2): ReLU(inplace=True)
        (3): SeparableConv2d_same(
          (conv1): Conv2d(728, 728, kernel_size=(3, 3), stride=(1, 1), padding=(1, 1), groups=728, bias=False)
          (pointwise): Conv2d(728, 728, kernel_size=(1, 1), stride=(1, 1), bias=False)
        )
        (4): GBN(
          (bn): BatchNorm2d(728, eps=1e-05, momentum=0.1, affine=True, track_running_stats=True)
        )
        (5): ReLU(inplace=True)
        (6): SeparableConv2d_same(
          (conv1): Conv2d(728, 728, kernel_size=(3, 3), stride=(1, 1), padding=(1, 1), groups=728, bias=False)
          (pointwise): Conv2d(728, 728, kernel_size=(1, 1), stride=(1, 1), bias=False)
        )
        (7): GBN(
          (bn): BatchNorm2d(728, eps=1e-05, momentum=0.1, affine=True, track_running_stats=True)
        )
      )
    )
    (block5): Block(
      (relu): ReLU(inplace=True)
      (rep): Sequential(
        (0): SeparableConv2d_same(
          (conv1): Conv2d(728, 728, kernel_size=(3, 3), stride=(1, 1), padding=(1, 1), groups=728, bias=False)
          (pointwise): Conv2d(728, 728, kernel_size=(1, 1), stride=(1, 1), bias=False)
        )
        (1): GBN(
          (bn): BatchNorm2d(728, eps=1e-05, momentum=0.1, affine=True, track_running_stats=True)
        )
        (2): ReLU(inplace=True)
        (3): SeparableConv2d_same(
          (conv1): Conv2d(728, 728, kernel_size=(3, 3), stride=(1, 1), padding=(1, 1), groups=728, bias=False)
          (pointwise): Conv2d(728, 728, kernel_size=(1, 1), stride=(1, 1), bias=False)
        )
        (4): GBN(
          (bn): BatchNorm2d(728, eps=1e-05, momentum=0.1, affine=True, track_running_stats=True)
        )
        (5): ReLU(inplace=True)
        (6): SeparableConv2d_same(
          (conv1): Conv2d(728, 728, kernel_size=(3, 3), stride=(1, 1), padding=(1, 1), groups=728, bias=False)
          (pointwise): Conv2d(728, 728, kernel_size=(1, 1), stride=(1, 1), bias=False)
        )
        (7): GBN(
          (bn): BatchNorm2d(728, eps=1e-05, momentum=0.1, affine=True, track_running_stats=True)
        )
      )
    )
    (block6): Block(
      (relu): ReLU(inplace=True)
      (rep): Sequential(
        (0): SeparableConv2d_same(
          (conv1): Conv2d(728, 728, kernel_size=(3, 3), stride=(1, 1), padding=(1, 1), groups=728, bias=False)
          (pointwise): Conv2d(728, 728, kernel_size=(1, 1), stride=(1, 1), bias=False)
        )
        (1): GBN(
          (bn): BatchNorm2d(728, eps=1e-05, momentum=0.1, affine=True, track_running_stats=True)
        )
        (2): ReLU(inplace=True)
        (3): SeparableConv2d_same(
          (conv1): Conv2d(728, 728, kernel_size=(3, 3), stride=(1, 1), padding=(1, 1), groups=728, bias=False)
          (pointwise): Conv2d(728, 728, kernel_size=(1, 1), stride=(1, 1), bias=False)
        )
        (4): GBN(
          (bn): BatchNorm2d(728, eps=1e-05, momentum=0.1, affine=True, track_running_stats=True)
        )
        (5): ReLU(inplace=True)
        (6): SeparableConv2d_same(
          (conv1): Conv2d(728, 728, kernel_size=(3, 3), stride=(1, 1), padding=(1, 1), groups=728, bias=False)
          (pointwise): Conv2d(728, 728, kernel_size=(1, 1), stride=(1, 1), bias=False)
        )
        (7): GBN(
          (bn): BatchNorm2d(728, eps=1e-05, momentum=0.1, affine=True, track_running_stats=True)
        )
      )
    )
    (block7): Block(
      (relu): ReLU(inplace=True)
      (rep): Sequential(
        (0): SeparableConv2d_same(
          (conv1): Conv2d(728, 728, kernel_size=(3, 3), stride=(1, 1), padding=(1, 1), groups=728, bias=False)
          (pointwise): Conv2d(728, 728, kernel_size=(1, 1), stride=(1, 1), bias=False)
        )
        (1): GBN(
          (bn): BatchNorm2d(728, eps=1e-05, momentum=0.1, affine=True, track_running_stats=True)
        )
        (2): ReLU(inplace=True)
        (3): SeparableConv2d_same(
          (conv1): Conv2d(728, 728, kernel_size=(3, 3), stride=(1, 1), padding=(1, 1), groups=728, bias=False)
          (pointwise): Conv2d(728, 728, kernel_size=(1, 1), stride=(1, 1), bias=False)
        )
        (4): GBN(
          (bn): BatchNorm2d(728, eps=1e-05, momentum=0.1, affine=True, track_running_stats=True)
        )
        (5): ReLU(inplace=True)
        (6): SeparableConv2d_same(
          (conv1): Conv2d(728, 728, kernel_size=(3, 3), stride=(1, 1), padding=(1, 1), groups=728, bias=False)
          (pointwise): Conv2d(728, 728, kernel_size=(1, 1), stride=(1, 1), bias=False)
        )
        (7): GBN(
          (bn): BatchNorm2d(728, eps=1e-05, momentum=0.1, affine=True, track_running_stats=True)
        )
      )
    )
    (block8): Block(
      (relu): ReLU(inplace=True)
      (rep): Sequential(
        (0): SeparableConv2d_same(
          (conv1): Conv2d(728, 728, kernel_size=(3, 3), stride=(1, 1), padding=(1, 1), groups=728, bias=False)
          (pointwise): Conv2d(728, 728, kernel_size=(1, 1), stride=(1, 1), bias=False)
        )
        (1): GBN(
          (bn): BatchNorm2d(728, eps=1e-05, momentum=0.1, affine=True, track_running_stats=True)
        )
        (2): ReLU(inplace=True)
        (3): SeparableConv2d_same(
          (conv1): Conv2d(728, 728, kernel_size=(3, 3), stride=(1, 1), padding=(1, 1), groups=728, bias=False)
          (pointwise): Conv2d(728, 728, kernel_size=(1, 1), stride=(1, 1), bias=False)
        )
        (4): GBN(
          (bn): BatchNorm2d(728, eps=1e-05, momentum=0.1, affine=True, track_running_stats=True)
        )
        (5): ReLU(inplace=True)
        (6): SeparableConv2d_same(
          (conv1): Conv2d(728, 728, kernel_size=(3, 3), stride=(1, 1), padding=(1, 1), groups=728, bias=False)
          (pointwise): Conv2d(728, 728, kernel_size=(1, 1), stride=(1, 1), bias=False)
        )
        (7): GBN(
          (bn): BatchNorm2d(728, eps=1e-05, momentum=0.1, affine=True, track_running_stats=True)
        )
      )
    )
    (block9): Block(
      (relu): ReLU(inplace=True)
      (rep): Sequential(
        (0): SeparableConv2d_same(
          (conv1): Conv2d(728, 728, kernel_size=(3, 3), stride=(1, 1), padding=(1, 1), groups=728, bias=False)
          (pointwise): Conv2d(728, 728, kernel_size=(1, 1), stride=(1, 1), bias=False)
        )
        (1): GBN(
          (bn): BatchNorm2d(728, eps=1e-05, momentum=0.1, affine=True, track_running_stats=True)
        )
        (2): ReLU(inplace=True)
        (3): SeparableConv2d_same(
          (conv1): Conv2d(728, 728, kernel_size=(3, 3), stride=(1, 1), padding=(1, 1), groups=728, bias=False)
          (pointwise): Conv2d(728, 728, kernel_size=(1, 1), stride=(1, 1), bias=False)
        )
        (4): GBN(
          (bn): BatchNorm2d(728, eps=1e-05, momentum=0.1, affine=True, track_running_stats=True)
        )
        (5): ReLU(inplace=True)
        (6): SeparableConv2d_same(
          (conv1): Conv2d(728, 728, kernel_size=(3, 3), stride=(1, 1), padding=(1, 1), groups=728, bias=False)
          (pointwise): Conv2d(728, 728, kernel_size=(1, 1), stride=(1, 1), bias=False)
        )
        (7): GBN(
          (bn): BatchNorm2d(728, eps=1e-05, momentum=0.1, affine=True, track_running_stats=True)
        )
      )
    )
    (block10): Block(
      (relu): ReLU(inplace=True)
      (rep): Sequential(
        (0): SeparableConv2d_same(
          (conv1): Conv2d(728, 728, kernel_size=(3, 3), stride=(1, 1), padding=(1, 1), groups=728, bias=False)
          (pointwise): Conv2d(728, 728, kernel_size=(1, 1), stride=(1, 1), bias=False)
        )
        (1): GBN(
          (bn): BatchNorm2d(728, eps=1e-05, momentum=0.1, affine=True, track_running_stats=True)
        )
        (2): ReLU(inplace=True)
        (3): SeparableConv2d_same(
          (conv1): Conv2d(728, 728, kernel_size=(3, 3), stride=(1, 1), padding=(1, 1), groups=728, bias=False)
          (pointwise): Conv2d(728, 728, kernel_size=(1, 1), stride=(1, 1), bias=False)
        )
        (4): GBN(
          (bn): BatchNorm2d(728, eps=1e-05, momentum=0.1, affine=True, track_running_stats=True)
        )
        (5): ReLU(inplace=True)
        (6): SeparableConv2d_same(
          (conv1): Conv2d(728, 728, kernel_size=(3, 3), stride=(1, 1), padding=(1, 1), groups=728, bias=False)
          (pointwise): Conv2d(728, 728, kernel_size=(1, 1), stride=(1, 1), bias=False)
        )
        (7): GBN(
          (bn): BatchNorm2d(728, eps=1e-05, momentum=0.1, affine=True, track_running_stats=True)
        )
      )
    )
    (block11): Block(
      (relu): ReLU(inplace=True)
      (rep): Sequential(
        (0): SeparableConv2d_same(
          (conv1): Conv2d(728, 728, kernel_size=(3, 3), stride=(1, 1), padding=(1, 1), groups=728, bias=False)
          (pointwise): Conv2d(728, 728, kernel_size=(1, 1), stride=(1, 1), bias=False)
        )
        (1): GBN(
          (bn): BatchNorm2d(728, eps=1e-05, momentum=0.1, affine=True, track_running_stats=True)
        )
        (2): ReLU(inplace=True)
        (3): SeparableConv2d_same(
          (conv1): Conv2d(728, 728, kernel_size=(3, 3), stride=(1, 1), padding=(1, 1), groups=728, bias=False)
          (pointwise): Conv2d(728, 728, kernel_size=(1, 1), stride=(1, 1), bias=False)
        )
        (4): GBN(
          (bn): BatchNorm2d(728, eps=1e-05, momentum=0.1, affine=True, track_running_stats=True)
        )
        (5): ReLU(inplace=True)
        (6): SeparableConv2d_same(
          (conv1): Conv2d(728, 728, kernel_size=(3, 3), stride=(1, 1), padding=(1, 1), groups=728, bias=False)
          (pointwise): Conv2d(728, 728, kernel_size=(1, 1), stride=(1, 1), bias=False)
        )
        (7): GBN(
          (bn): BatchNorm2d(728, eps=1e-05, momentum=0.1, affine=True, track_running_stats=True)
        )
      )
    )
    (block12): Block(
      (relu): ReLU(inplace=True)
      (rep): Sequential(
        (0): SeparableConv2d_same(
          (conv1): Conv2d(728, 728, kernel_size=(3, 3), stride=(1, 1), padding=(1, 1), groups=728, bias=False)
          (pointwise): Conv2d(728, 728, kernel_size=(1, 1), stride=(1, 1), bias=False)
        )
        (1): GBN(
          (bn): BatchNorm2d(728, eps=1e-05, momentum=0.1, affine=True, track_running_stats=True)
        )
        (2): ReLU(inplace=True)
        (3): SeparableConv2d_same(
          (conv1): Conv2d(728, 728, kernel_size=(3, 3), stride=(1, 1), padding=(1, 1), groups=728, bias=False)
          (pointwise): Conv2d(728, 728, kernel_size=(1, 1), stride=(1, 1), bias=False)
        )
        (4): GBN(
          (bn): BatchNorm2d(728, eps=1e-05, momentum=0.1, affine=True, track_running_stats=True)
        )
        (5): ReLU(inplace=True)
        (6): SeparableConv2d_same(
          (conv1): Conv2d(728, 728, kernel_size=(3, 3), stride=(1, 1), padding=(1, 1), groups=728, bias=False)
          (pointwise): Conv2d(728, 728, kernel_size=(1, 1), stride=(1, 1), bias=False)
        )
        (7): GBN(
          (bn): BatchNorm2d(728, eps=1e-05, momentum=0.1, affine=True, track_running_stats=True)
        )
      )
    )
    (block13): Block(
      (relu): ReLU(inplace=True)
      (rep): Sequential(
        (0): SeparableConv2d_same(
          (conv1): Conv2d(728, 728, kernel_size=(3, 3), stride=(1, 1), padding=(1, 1), groups=728, bias=False)
          (pointwise): Conv2d(728, 728, kernel_size=(1, 1), stride=(1, 1), bias=False)
        )
        (1): GBN(
          (bn): BatchNorm2d(728, eps=1e-05, momentum=0.1, affine=True, track_running_stats=True)
        )
        (2): ReLU(inplace=True)
        (3): SeparableConv2d_same(
          (conv1): Conv2d(728, 728, kernel_size=(3, 3), stride=(1, 1), padding=(1, 1), groups=728, bias=False)
          (pointwise): Conv2d(728, 728, kernel_size=(1, 1), stride=(1, 1), bias=False)
        )
        (4): GBN(
          (bn): BatchNorm2d(728, eps=1e-05, momentum=0.1, affine=True, track_running_stats=True)
        )
        (5): ReLU(inplace=True)
        (6): SeparableConv2d_same(
          (conv1): Conv2d(728, 728, kernel_size=(3, 3), stride=(1, 1), padding=(1, 1), groups=728, bias=False)
          (pointwise): Conv2d(728, 728, kernel_size=(1, 1), stride=(1, 1), bias=False)
        )
        (7): GBN(
          (bn): BatchNorm2d(728, eps=1e-05, momentum=0.1, affine=True, track_running_stats=True)
        )
      )
    )
    (block14): Block(
      (relu): ReLU(inplace=True)
      (rep): Sequential(
        (0): SeparableConv2d_same(
          (conv1): Conv2d(728, 728, kernel_size=(3, 3), stride=(1, 1), padding=(1, 1), groups=728, bias=False)
          (pointwise): Conv2d(728, 728, kernel_size=(1, 1), stride=(1, 1), bias=False)
        )
        (1): GBN(
          (bn): BatchNorm2d(728, eps=1e-05, momentum=0.1, affine=True, track_running_stats=True)
        )
        (2): ReLU(inplace=True)
        (3): SeparableConv2d_same(
          (conv1): Conv2d(728, 728, kernel_size=(3, 3), stride=(1, 1), padding=(1, 1), groups=728, bias=False)
          (pointwise): Conv2d(728, 728, kernel_size=(1, 1), stride=(1, 1), bias=False)
        )
        (4): GBN(
          (bn): BatchNorm2d(728, eps=1e-05, momentum=0.1, affine=True, track_running_stats=True)
        )
        (5): ReLU(inplace=True)
        (6): SeparableConv2d_same(
          (conv1): Conv2d(728, 728, kernel_size=(3, 3), stride=(1, 1), padding=(1, 1), groups=728, bias=False)
          (pointwise): Conv2d(728, 728, kernel_size=(1, 1), stride=(1, 1), bias=False)
        )
        (7): GBN(
          (bn): BatchNorm2d(728, eps=1e-05, momentum=0.1, affine=True, track_running_stats=True)
        )
      )
    )
    (block15): Block(
      (relu): ReLU(inplace=True)
      (rep): Sequential(
        (0): SeparableConv2d_same(
          (conv1): Conv2d(728, 728, kernel_size=(3, 3), stride=(1, 1), padding=(1, 1), groups=728, bias=False)
          (pointwise): Conv2d(728, 728, kernel_size=(1, 1), stride=(1, 1), bias=False)
        )
        (1): GBN(
          (bn): BatchNorm2d(728, eps=1e-05, momentum=0.1, affine=True, track_running_stats=True)
        )
        (2): ReLU(inplace=True)
        (3): SeparableConv2d_same(
          (conv1): Conv2d(728, 728, kernel_size=(3, 3), stride=(1, 1), padding=(1, 1), groups=728, bias=False)
          (pointwise): Conv2d(728, 728, kernel_size=(1, 1), stride=(1, 1), bias=False)
        )
        (4): GBN(
          (bn): BatchNorm2d(728, eps=1e-05, momentum=0.1, affine=True, track_running_stats=True)
        )
        (5): ReLU(inplace=True)
        (6): SeparableConv2d_same(
          (conv1): Conv2d(728, 728, kernel_size=(3, 3), stride=(1, 1), padding=(1, 1), groups=728, bias=False)
          (pointwise): Conv2d(728, 728, kernel_size=(1, 1), stride=(1, 1), bias=False)
        )
        (7): GBN(
          (bn): BatchNorm2d(728, eps=1e-05, momentum=0.1, affine=True, track_running_stats=True)
        )
      )
    )
    (block16): Block(
      (relu): ReLU(inplace=True)
      (rep): Sequential(
        (0): SeparableConv2d_same(
          (conv1): Conv2d(728, 728, kernel_size=(3, 3), stride=(1, 1), padding=(1, 1), groups=728, bias=False)
          (pointwise): Conv2d(728, 728, kernel_size=(1, 1), stride=(1, 1), bias=False)
        )
        (1): GBN(
          (bn): BatchNorm2d(728, eps=1e-05, momentum=0.1, affine=True, track_running_stats=True)
        )
        (2): ReLU(inplace=True)
        (3): SeparableConv2d_same(
          (conv1): Conv2d(728, 728, kernel_size=(3, 3), stride=(1, 1), padding=(1, 1), groups=728, bias=False)
          (pointwise): Conv2d(728, 728, kernel_size=(1, 1), stride=(1, 1), bias=False)
        )
        (4): GBN(
          (bn): BatchNorm2d(728, eps=1e-05, momentum=0.1, affine=True, track_running_stats=True)
        )
        (5): ReLU(inplace=True)
        (6): SeparableConv2d_same(
          (conv1): Conv2d(728, 728, kernel_size=(3, 3), stride=(1, 1), padding=(1, 1), groups=728, bias=False)
          (pointwise): Conv2d(728, 728, kernel_size=(1, 1), stride=(1, 1), bias=False)
        )
        (7): GBN(
          (bn): BatchNorm2d(728, eps=1e-05, momentum=0.1, affine=True, track_running_stats=True)
        )
      )
    )
    (block17): Block(
      (relu): ReLU(inplace=True)
      (rep): Sequential(
        (0): SeparableConv2d_same(
          (conv1): Conv2d(728, 728, kernel_size=(3, 3), stride=(1, 1), padding=(1, 1), groups=728, bias=False)
          (pointwise): Conv2d(728, 728, kernel_size=(1, 1), stride=(1, 1), bias=False)
        )
        (1): GBN(
          (bn): BatchNorm2d(728, eps=1e-05, momentum=0.1, affine=True, track_running_stats=True)
        )
        (2): ReLU(inplace=True)
        (3): SeparableConv2d_same(
          (conv1): Conv2d(728, 728, kernel_size=(3, 3), stride=(1, 1), padding=(1, 1), groups=728, bias=False)
          (pointwise): Conv2d(728, 728, kernel_size=(1, 1), stride=(1, 1), bias=False)
        )
        (4): GBN(
          (bn): BatchNorm2d(728, eps=1e-05, momentum=0.1, affine=True, track_running_stats=True)
        )
        (5): ReLU(inplace=True)
        (6): SeparableConv2d_same(
          (conv1): Conv2d(728, 728, kernel_size=(3, 3), stride=(1, 1), padding=(1, 1), groups=728, bias=False)
          (pointwise): Conv2d(728, 728, kernel_size=(1, 1), stride=(1, 1), bias=False)
        )
        (7): GBN(
          (bn): BatchNorm2d(728, eps=1e-05, momentum=0.1, affine=True, track_running_stats=True)
        )
      )
    )
    (block18): Block(
      (relu): ReLU(inplace=True)
      (rep): Sequential(
        (0): SeparableConv2d_same(
          (conv1): Conv2d(728, 728, kernel_size=(3, 3), stride=(1, 1), padding=(1, 1), groups=728, bias=False)
          (pointwise): Conv2d(728, 728, kernel_size=(1, 1), stride=(1, 1), bias=False)
        )
        (1): GBN(
          (bn): BatchNorm2d(728, eps=1e-05, momentum=0.1, affine=True, track_running_stats=True)
        )
        (2): ReLU(inplace=True)
        (3): SeparableConv2d_same(
          (conv1): Conv2d(728, 728, kernel_size=(3, 3), stride=(1, 1), padding=(1, 1), groups=728, bias=False)
          (pointwise): Conv2d(728, 728, kernel_size=(1, 1), stride=(1, 1), bias=False)
        )
        (4): GBN(
          (bn): BatchNorm2d(728, eps=1e-05, momentum=0.1, affine=True, track_running_stats=True)
        )
        (5): ReLU(inplace=True)
        (6): SeparableConv2d_same(
          (conv1): Conv2d(728, 728, kernel_size=(3, 3), stride=(1, 1), padding=(1, 1), groups=728, bias=False)
          (pointwise): Conv2d(728, 728, kernel_size=(1, 1), stride=(1, 1), bias=False)
        )
        (7): GBN(
          (bn): BatchNorm2d(728, eps=1e-05, momentum=0.1, affine=True, track_running_stats=True)
        )
      )
    )
    (block19): Block(
      (relu): ReLU(inplace=True)
      (rep): Sequential(
        (0): SeparableConv2d_same(
          (conv1): Conv2d(728, 728, kernel_size=(3, 3), stride=(1, 1), padding=(1, 1), groups=728, bias=False)
          (pointwise): Conv2d(728, 728, kernel_size=(1, 1), stride=(1, 1), bias=False)
        )
        (1): GBN(
          (bn): BatchNorm2d(728, eps=1e-05, momentum=0.1, affine=True, track_running_stats=True)
        )
        (2): ReLU(inplace=True)
        (3): SeparableConv2d_same(
          (conv1): Conv2d(728, 728, kernel_size=(3, 3), stride=(1, 1), padding=(1, 1), groups=728, bias=False)
          (pointwise): Conv2d(728, 728, kernel_size=(1, 1), stride=(1, 1), bias=False)
        )
        (4): GBN(
          (bn): BatchNorm2d(728, eps=1e-05, momentum=0.1, affine=True, track_running_stats=True)
        )
        (5): ReLU(inplace=True)
        (6): SeparableConv2d_same(
          (conv1): Conv2d(728, 728, kernel_size=(3, 3), stride=(1, 1), padding=(1, 1), groups=728, bias=False)
          (pointwise): Conv2d(728, 728, kernel_size=(1, 1), stride=(1, 1), bias=False)
        )
        (7): GBN(
          (bn): BatchNorm2d(728, eps=1e-05, momentum=0.1, affine=True, track_running_stats=True)
        )
      )
    )
    (block20): Block(
      (skip): Conv2d(728, 1024, kernel_size=(1, 1), stride=(1, 1), bias=False)
      (skipbn): GBN(
        (bn): BatchNorm2d(1024, eps=1e-05, momentum=0.1, affine=True, track_running_stats=True)
      )
      (relu): ReLU(inplace=True)
      (rep): Sequential(
        (0): SeparableConv2d_same(
          (conv1): Conv2d(728, 728, kernel_size=(3, 3), stride=(1, 1), padding=(1, 1), groups=728, bias=False)
          (pointwise): Conv2d(728, 728, kernel_size=(1, 1), stride=(1, 1), bias=False)
        )
        (1): GBN(
          (bn): BatchNorm2d(728, eps=1e-05, momentum=0.1, affine=True, track_running_stats=True)
        )
        (2): ReLU(inplace=True)
        (3): SeparableConv2d_same(
          (conv1): Conv2d(728, 728, kernel_size=(3, 3), stride=(1, 1), padding=(1, 1), groups=728, bias=False)
          (pointwise): Conv2d(728, 1024, kernel_size=(1, 1), stride=(1, 1), bias=False)
        )
        (4): GBN(
          (bn): BatchNorm2d(1024, eps=1e-05, momentum=0.1, affine=True, track_running_stats=True)
        )
        (5): SeparableConv2d_same(
          (conv1): Conv2d(1024, 1024, kernel_size=(3, 3), stride=(1, 1), padding=(1, 1), groups=1024, bias=False)
          (pointwise): Conv2d(1024, 1024, kernel_size=(1, 1), stride=(1, 1), bias=False)
        )
      )
    )
    (conv3): SeparableConv2d_same(
      (conv1): Conv2d(1024, 1024, kernel_size=(3, 3), stride=(1, 1), padding=(2, 2), dilation=(2, 2), groups=1024, bias=False)
      (pointwise): Conv2d(1024, 1536, kernel_size=(1, 1), stride=(1, 1), bias=False)
    )
    (bn3): GBN(
      (bn): BatchNorm2d(1536, eps=1e-05, momentum=0.1, affine=True, track_running_stats=True)
    )
    (conv4): SeparableConv2d_same(
      (conv1): Conv2d(1536, 1536, kernel_size=(3, 3), stride=(1, 1), padding=(2, 2), dilation=(2, 2), groups=1536, bias=False)
      (pointwise): Conv2d(1536, 1536, kernel_size=(1, 1), stride=(1, 1), bias=False)
    )
    (bn4): GBN(
      (bn): BatchNorm2d(1536, eps=1e-05, momentum=0.1, affine=True, track_running_stats=True)
    )
    (conv5): SeparableConv2d_same(
      (conv1): Conv2d(1536, 1536, kernel_size=(3, 3), stride=(1, 1), padding=(2, 2), dilation=(2, 2), groups=1536, bias=False)
      (pointwise): Conv2d(1536, 2048, kernel_size=(1, 1), stride=(1, 1), bias=False)
    )
    (bn5): GBN(
      (bn): BatchNorm2d(2048, eps=1e-05, momentum=0.1, affine=True, track_running_stats=True)
    )
  )
  (bottleneck): Bottleneck(
    (aspp1): ASPP_module(
      (atrous_convolution): Conv2d(2048, 256, kernel_size=(1, 1), stride=(1, 1), bias=False)
      (bn): GBN(
        (bn): BatchNorm2d(256, eps=1e-05, momentum=0.1, affine=True, track_running_stats=True)
      )
      (relu): ReLU()
    )
    (aspp2): ASPP_module(
      (atrous_convolution): Conv2d(2048, 256, kernel_size=(3, 3), stride=(1, 1), padding=(6, 6), dilation=(6, 6), bias=False)
      (bn): GBN(
        (bn): BatchNorm2d(256, eps=1e-05, momentum=0.1, affine=True, track_running_stats=True)
      )
      (relu): ReLU()
    )
    (aspp3): ASPP_module(
      (atrous_convolution): Conv2d(2048, 256, kernel_size=(3, 3), stride=(1, 1), padding=(12, 12), dilation=(12, 12), bias=False)
      (bn): GBN(
        (bn): BatchNorm2d(256, eps=1e-05, momentum=0.1, affine=True, track_running_stats=True)
      )
      (relu): ReLU()
    )
    (aspp4): ASPP_module(
      (atrous_convolution): Conv2d(2048, 256, kernel_size=(3, 3), stride=(1, 1), padding=(18, 18), dilation=(18, 18), bias=False)
      (bn): GBN(
        (bn): BatchNorm2d(256, eps=1e-05, momentum=0.1, affine=True, track_running_stats=True)
      )
      (relu): ReLU()
    )
    (global_avg_pool): GlobalAveragePool(
      (global_average_pool): Sequential(
        (0): AdaptiveAvgPool2d(output_size=(1, 1))
        (1): Conv2d(2048, 256, kernel_size=(1, 1), stride=(1, 1), bias=False)
        (2): TrainableAffine()
        (3): ReLU()
      )
    )
    (conv): Conv2d(1280, 256, kernel_size=(1, 1), stride=(1, 1), bias=False)
    (bn): GBN(
      (bn): BatchNorm2d(256, eps=1e-05, momentum=0.1, affine=True, track_running_stats=True)
    )
    (relu): ReLU()
  )
  (conv2): Conv2d(128, 48, kernel_size=(1, 1), stride=(1, 1), bias=False)
  (bn2): GBN(
    (bn): BatchNorm2d(48, eps=1e-05, momentum=0.1, affine=True, track_running_stats=True)
  )
  (relu): ReLU()
  (upsample): DeconvUpsampler(
    (deconv1): Sequential(
      (0): ConvTranspose2d(256, 256, kernel_size=(3, 3), stride=(2, 2), padding=(1, 1), output_padding=(1, 1), bias=False)
      (1): GBN(
        (bn): BatchNorm2d(256, eps=1e-05, momentum=0.1, affine=True, track_running_stats=True)
      )
      (2): ReLU()
      (3): ConvTranspose2d(256, 256, kernel_size=(3, 3), stride=(2, 2), padding=(1, 1), output_padding=(1, 1), bias=False)
      (4): GBN(
        (bn): BatchNorm2d(256, eps=1e-05, momentum=0.1, affine=True, track_running_stats=True)
      )
      (5): ReLU()
    )
    (conv1): Sequential(
      (0): Conv2d(304, 256, kernel_size=(3, 3), stride=(1, 1), padding=(1, 1), bias=False)
      (1): GBN(
        (bn): BatchNorm2d(256, eps=1e-05, momentum=0.1, affine=True, track_running_stats=True)
      )
      (2): ReLU()
      (3): Conv2d(256, 256, kernel_size=(3, 3), stride=(1, 1), padding=(1, 1), bias=False)
      (4): GBN(
        (bn): BatchNorm2d(256, eps=1e-05, momentum=0.1, affine=True, track_running_stats=True)
      )
      (5): ReLU()
      (6): Conv2d(256, 256, kernel_size=(1, 1), stride=(1, 1))
    )
    (deconv2): Sequential(
      (0): ConvTranspose2d(256, 256, kernel_size=(3, 3), stride=(2, 2), padding=(1, 1), output_padding=(1, 1), bias=False)
      (1): GBN(
        (bn): BatchNorm2d(256, eps=1e-05, momentum=0.1, affine=True, track_running_stats=True)
      )
      (2): ReLU()
    )
    (last_deconv): Sequential(
      (0): ConvTranspose2d(256, 3, kernel_size=(3, 3), stride=(2, 2), padding=(1, 1), output_padding=(1, 1), bias=False)
    )
  )
)
Total number of elements: 56454720
Initialized dataset with  121266  samples.
Initialized dataset with  15158  samples.
:::MLLOG {"namespace": "", "time_ms": 1689105126123, "event_type": "POINT_IN_TIME", "key": "train_samples", "value": 121266, "metadata": {"file": "/project/rcde/nnisbet/mlperf_hpc/deepcam/src/deepCam/train.py", "lineno": 185}}
…
